lenet.pt (torch, 251804 bytes, 10 tensors)

weight f4 [6, 1, 5, 5]
0	0x3de71b9c	0.11284563
1	0xbda6abf6	-0.08138268
2	0x3e7d69f1	0.24747445
3	0x3e43dc03	0.19126897
4	0x3d985510	0.074380994
5	0x3f2bf6f5	0.671737
6	0x3f3c2690	0.7349634
7	0x3f62ce0e	0.88595665
8	0x3f135e24	0.5756552
9	0x3e5ef711	0.21773936
10	0x3f0948a7	0.53626484
11	0x3f31c5b2	0.69442284
12	0x3f1e26c9	0.6177793
13	0x3e999b77	0.30001423
14	0xbdb460dc	-0.08807537
15	0x3e44f322	0.19233373
16	0x3e91e209	0.28492764
17	0x3ed2484f	0.41070792
18	0xbe98b0b5	-0.29822317
19	0xbee020d1	-0.43775037
20	0x3d9c679d	0.0763695
21	0xbdd88d65	-0.10573844
22	0xbeb0d70a	-0.34539062
23	0xbee448c7	-0.44586775
24	0xbf4a3357	-0.7898459
25	0x3e911c4b	0.28341898
26	0x3ea8a2ee	0.32936805
27	0xbf6955eb	-0.91146725
28	0xbfac79e1	-1.3474694
29	0xbf3313eb	-0.6995227
30	0x3f29a17b	0.66262025
31	0x3f715afa	0.94279444
32	0x3f4362b3	0.7632248
33	0xbf73bfdd	-0.95214635
34	0xc005ad9a	-2.0887208
35	0x3ee845fe	0.453659
36	0x3f2ca416	0.67437875
37	0x3f963732	1.1735594
38	0x3f14f931	0.58192736
39	0xbfa284dd	-1.2696797
40	0xbd6927fc	-0.056922898
41	0x3ed107e1	0.40826324
42	0x3f42fb4e	0.7616471
43	0x3f8c8d7b	1.0980676
44	0x3e1b89cf	0.15189289
45	0xbf11dfce	-0.56982124
46	0x3da67793	0.08128276
47	0xbe84f0c1	-0.2596493
48	0x3d3776c7	0.04479101
49	0x3f1f2b41	0.62175375
50	0x3e0e6437	0.13905416
51	0xbe10c1dd	-0.14136453
52	0x3e3d281f	0.18472336
53	0xbe3307e1	-0.17483474
54	0x3ba55b35	0.005046273
55	0x3e1a0d22	0.15044072
56	0xbd5bba0f	-0.053644236
57	0xbde3c02a	-0.11120637
58	0x3dbddb10	0.092702985
59	0x3dec398f	0.11534416
60	0xbd3a2005	-0.045440692
61	0xbd90f770	-0.07078445
62	0x3dbddbcb	0.09270438
63	0xbd968e9e	-0.07351421
64	0xbe035b47	-0.12827788
65	0xbd421526	-0.04738345
66	0x3db045d3	0.08607068
67	0xbd45760e	-0.04820829
68	0xbe1dcb71	-0.15409638
69	0x3d21dd6b	0.0395178
70	0xbde58f81	-0.11209012
71	0x3bdf21f1	0.006809466
72	0xbe24b2f0	-0.16083884
73	0x3e32764f	0.17427944
74	0xbd332d61	-0.04374445
75	0xbf1d83c5	-0.6152919
76	0xbeafa5e4	-0.34306252
77	0x3de0449b	0.109505855
78	0x3e0ee18e	0.1395323
79	0x3c4502f6	0.012024632
80	0xbeb6deb4	-0.35716784
81	0x3ea52ef2	0.3226238
82	0x3f158d15	0.584184
83	0x3ea82425	0.32840076
84	0x3e24bcf5	0.16087706
85	0x3e762b88	0.24040043
86	0x3f5c46c4	0.8604548
87	0x3f82a6c2	1.020714
88	0x3f215a60	0.63028526
89	0x3ee9711e	0.45594114
90	0x3e1464c0	0.14491558
91	0x3f2ad591	0.66732126
92	0x3f4b37a7	0.79381794
93	0x3f208c78	0.6271434
94	0x3e38884c	0.18020743
95	0xbde4a229	-0.11163742
96	0x3ec2c680	0.38042068
97	0x3f149780	0.5804367
98	0x3e970b56	0.29500836
99	0xbe842641	-0.25810435
100	0x3e35354b	0.17696111
101	0x3e983775	0.2972981
102	0xbdbcc6c7	-0.09217601
103	0xbe57429f	-0.21021508
104	0xbe1f44b8	-0.15553558
105	0x3e19abcd	0.15006943
106	0x3e817705	0.25286117
107	0x3e2138a9	0.1574427
108	0xbed5a272	-0.41725498
109	0xbde172ad	-0.11008201
110	0x3e29c5ba	0.16579333
111	0x3e8714af	0.26382968
112	0x3e9e42c3	0.3091031
113	0xbec2e377	-0.38064167
114	0xbec47372	-0.38369328
115	0xbe094b55	-0.13407643
116	0x3ea9841d	0.33108607
117	0x3ea21c00	0.31661987
118	0xbe99acf1	-0.30014756
119	0xbebcfb2b	-0.36910376
120	0x3dd3184e	0.1030737
121	0x3d369c5f	0.04458272
122	0x3eb6e7cc	0.35723722
123	0xbe8bd2db	-0.27309307
124	0xbdc270b5	-0.094941534
125	0x3e263383	0.16230588
126	0x3e708fe9	0.23492397
127	0xbda4f5fc	-0.0805473
128	0x3e6c33e7	0.23066674
129	0xbd7dcdd2	-0.061963864
130	0x3df7a51e	0.120920405
131	0xbe0fec18	-0.14054906
132	0x3d07c668	0.0331482
133	0xbe5418d6	-0.20712599
134	0xbe0e1489	-0.13875021
135	0xbe85a6aa	-0.26103717
136	0xbe8cc37a	-0.27492887
137	0x3d08e6f4	0.03342338
138	0xbe41211c	-0.18860286
139	0xbd8313a3	-0.0640023
140	0xbe549bf7	-0.20762621
141	0x3da988e7	0.08278065
142	0xbe47da02	-0.19516757
143	0xbdc23e2c	-0.094845146
144	0x3da801ef	0.08203494
145	0x3e9b222e	0.30299515
146	0x3e2b90f5	0.16754515
147	0x3e627d88	0.22118199
148	0x3e9f421f	0.31105134
149	0xbd525a24	-0.051355496

bias f4 [6]
0	0xbf3fae28	-0.74875116
1	0x3e910be3	0.2832938
2	0xbe0845e6	-0.13307914
3	0xbf357bfa	-0.708923
4	0x3c2ef903	0.010679486
5	0x3aa1b025	0.001233582

weight f4 [16, 6, 5, 5]
0	0x3e5083c2	0.20362762
1	0x3da94067	0.08264237
2	0x3d8d0529	0.0688575
3	0xbe8c0f24	-0.273553
4	0xbe906acc	-0.2820648
5	0xbe57ec18	-0.21086156
6	0xbea09df0	-0.31370497
7	0xbee2d9f1	-0.443069
8	0xbe5296aa	-0.20565286
9	0x3d9c5d7b	0.076350175
10	0xbe8694d1	-0.26285413
11	0xbe69735d	-0.22797914
12	0xbdc15b6e	-0.09441267
13	0x3e18ac3d	0.14909454
14	0x3dca15ee	0.09867464
15	0x3e802b9d	0.25033274
16	0x3ecc3aaf	0.39888522
17	0x3eafd266	0.3434021
18	0x3eab400c	0.334473
19	0x3e957275	0.29188886
20	0x3cd01f99	0.025405692
21	0x3d039b3f	0.032130476
22	0xbce31a31	-0.02772245
23	0xbd5828ad	-0.052773166
24	0xbe144335	-0.14478762
25	0xbe020773	-0.12698154
26	0xbe23d96f	-0.16000913
27	0xbc4a0642	-0.012330594
28	0x3d7253b3	0.059161853
29	0xbb95829b	-0.0045626885
30	0xbe2c2ef9	-0.16814794
31	0xbdcb60e4	-0.0993059
32	0xbdd92e19	-0.106044956
33	0xbdbcb2d5	-0.09213797
34	0xbd7072e9	-0.058703337
35	0x3c889cda	0.016676355
36	0x3e49b9a8	0.19699728
37	0x3dd95275	0.106114306
38	0x3e40af81	0.1881695
39	0x3e1e489d	0.15457387
40	0xbe1a5b39	-0.15073861
41	0xbd6303f2	-0.055423684
42	0xbda8e267	-0.08246308
43	0x3d9e9ba3	0.07744529
44	0x3d138a10	0.03602034
45	0xbe846b9f	-0.25863358
46	0xbe42bf8a	-0.19018379
47	0xbe6bfaba	-0.23044863
48	0xbe56d6c3	-0.20980363
49	0xbe0d56f0	-0.13802695
50	0x3d9b30bc	0.07577655
51	0xbc812494	-0.015764512
52	0x3d7f9936	0.062401973
53	0xbd1f2d7e	-0.038861744
54	0x3d2b1232	0.0417654
55	0x3b4de144	0.0031414786
56	0x3d7a2038	0.061065882
57	0x3d3dd0c8	0.046341687
58	0x3d8e68d0	0.06953585
59	0x3cd6acb9	0.026205407
60	0x3cbc5929	0.022991734
61	0x3d8815a1	0.066447504
62	0xbd63d0ff	-0.055619236
63	0xbd2d487d	-0.04230546
64	0xbce6a6bb	-0.028155675
65	0xbd4aa008	-0.049469024
66	0xbd0213c9	-0.03175715
67	0x3d382c43	0.044964086
68	0xbc56e45b	-0.013115968
69	0xbc6125a1	-0.013741882
70	0xbc0ddccf	-0.008658602
71	0xbd607172	-0.05479569
72	0xbd9b57c1	-0.07585097
73	0x3d95c212	0.073124066
74	0xbabbf230	-0.0014339145
75	0x3b28a053	0.0025730326
76	0xbe7fe6fa	-0.24990454
77	0xbee4b5f5	-0.44670072
78	0xbec3f74b	-0.38274607
79	0xbd4413c7	-0.047870424
80	0xbf3b7541	-0.7322579
81	0xbf3f6489	-0.7476278
82	0xbf1a5aa3	-0.6029455
83	0xbe7aae55	-0.24480565
84	0x3e63ca3c	0.22245115
85	0xbd404cdd	-0.046948303
86	0x3df612bf	0.12015294
87	0x3ee3e93f	0.4451389
88	0x3f053909	0.52040154
89	0x3efca264	0.49342644
90	0x3eb04599	0.344281
91	0x3f05646a	0.52106345
92	0x3edcadc7	0.43101332
93	0x3e605292	0.21906498
94	0x3e82a907	0.25519583
95	0x3e93c880	0.28863907
96	0x3cd4dd08	0.025984302
97	0xbcf65fcf	-0.030074982
98	0xbda7ba15	-0.08189789
99	0xbe1d9d1d	-0.15391965
100	0x3d5fdecf	0.054655846
101	0xbd02be6e	-0.03191989
102	0xbcede0d0	-0.029037863
103	0x3c205d3c	0.009787854
104	0xbcbfe4e6	-0.023424577
105	0xbd325aea	-0.043543734
106	0xbcf1605d	-0.029464895
107	0xbce05425	-0.027383873
108	0xbdcbf80d	-0.09959421
109	0xbda7f482	-0.08200933
110	0xbe0f298c	-0.13980693
111	0xbd8edf92	-0.069762364
112	0xbdf8e5bb	-0.121531926
113	0xbd3e1a42	-0.04641176
114	0xbd8288a1	-0.06373716
115	0xbd152aaa	-0.03641764
116	0x3d2587c0	0.040412664
117	0xbd4b01a0	-0.049562097
118	0xbd209b27	-0.039210465
119	0xbd5814a3	-0.052754056
120	0xbda6334a	-0.08115251
121	0x3d23a4d9	0.039952133
122	0xbd843dac	-0.064570755
123	0xbd3a11cb	-0.045427125
124	0x3d829796	0.06376569
125	0xbc5bbfe3	-0.013412449
126	0x3d9b444c	0.07581386
127	0x3d64ed92	0.055890627
128	0x3d1d30c4	0.038376585
129	0x3cd77311	0.026299985
130	0x3c1d96d4	0.00961848
131	0x3b8d49c5	0.0043117725
132	0x3dbb347a	0.091408685
133	0x3d4e16d1	0.05031473
134	0x3d7e1143	0.06202818
135	0x3ddcf78f	0.107894056
136	0x3ccbfca5	0.024900744
137	0x3da658da	0.08122416
138	0xbcdcf1b9	-0.026970731
139	0x3d241c6e	0.040066175
140	0xbd1ee0da	-0.038788654
141	0xbd70aaba	-0.058756568
142	0x3d8b87d8	0.068130195
143	0x3d06ef4f	0.032943066
144	0x3c417324	0.011807237
145	0x3d76f298	0.06028995
146	0x3c0d37f3	0.008619296
147	0xbd505aa5	-0.050867695
148	0x3cb9960e	0.02265456
149	0x3d148c53	0.036266636
150	0x3e5fa88d	0.21841641
151	0x3e28216e	0.16419002
152	0x3e3fe247	0.18738662
153	0x3eae3bfa	0.34030133
154	0x3ebef3a3	0.37295255
155	0x3dc6ca75	0.09706584
156	0xbd152367	-0.036410715
157	0xbd1c23e3	-0.03812016
158	0xbded71f1	-0.11593998
159	0x3d291622	0.041280873
160	0xbd1904c1	-0.03735805
161	0xbca94825	-0.020664284
162	0xbe367ae9	-0.17820324
163	0xbd8de81e	-0.069290385
164	0x3d90387f	0.07042026
165	0xbd6fb102	-0.058518417
166	0xbe1b47cf	-0.15164112
167	0xbd76babf	-0.06023669
168	0xbd608d6b	-0.054822367
169	0x3c56c3fe	0.013108252
170	0xbd2b5756	-0.041831337
171	0xbd998c2c	-0.07497439
172	0x3b92041c	0.0044560563
173	0xbd5b20ce	-0.053498082
174	0xbd15f0c2	-0.036606558
175	0xbdf35d52	-0.11883034
176	0xbe8d9f10	-0.27660418
177	0xbe5087b4	-0.20364267
178	0xbda39848	-0.0798803
179	0xbe1a1d93	-0.15050344
180	0xbe1214b9	-0.14265718
181	0xbe28a948	-0.16470826
182	0xbe0ef1b9	-0.13959397
183	0xbdb7f006	-0.08981328
184	0x3d94e696	0.07270543
185	0xbdde0bf3	-0.10842123
186	0xbe5bc096	-0.21460184
187	0xbe6cb92c	-0.23117512
188	0xbe7bf7c4	-0.24606234
189	0xbe31aa83	-0.17350201
190	0xbe0d7b59	-0.13816585
191	0xbe5a7311	-0.21332957
192	0xbe2503ca	-0.16114727
193	0xbe1bfc64	-0.15232998
194	0xbc7d896d	-0.015474659
195	0xbe30dcc5	-0.17271717
196	0xbdb9d979	-0.09074683
197	0xbe02a7ea	-0.12759367
198	0x3e00ec45	0.1259013
199	0x3e4dee7e	0.20110509
200	0xbd4d0102	-0.05004979
201	0xbcd671bc	-0.02617728
202	0x3d4b8696	0.049688898
203	0xbbab3b93	-0.0052256077
204	0xbd8b28ef	-0.06794917
205	0x3d0b6719	0.03403387
206	0xbcbfc2f5	-0.023408392
207	0xbd8e8b36	-0.06960146
208	0x3cf72679	0.030169712
209	0xbda165b5	-0.07880727
210	0xbc076f6d	-0.008266312
211	0xbd0b9daa	-0.034085907
212	0xbc96f5cb	-0.01842775
213	0xbd123490	-0.03569466
214	0x3cf067dd	0.0293464
215	0x3d28ca1f	0.041208383
216	0x3cfc78f6	0.030819397
217	0xbd944ce1	-0.07241226
218	0xbafa86e4	-0.0019113687
219	0x3d17c237	0.037050452
220	0xbd576846	-0.052589677
221	0x3d506945	0.050881643
222	0xbcb70037	-0.02233897
223	0x3b0ff9dd	0.0021968998
224	0xbd522140	-0.05130124
225	0x3df4d2ee	0.11954294
226	0x3d4e5d83	0.05038215
227	0x3d1a34ec	0.037648126
228	0x3e77d907	0.24203883
229	0x3ed29d5d	0.41135684
230	0x3d168b2a	0.03675381
231	0xbda6863b	-0.08131071
232	0xbcad5cea	-0.021162469
233	0xbce1c082	-0.027557615
234	0x3d5ca9bd	0.053872813
235	0x3dbf7853	0.09349122
236	0xbe12f3a7	-0.14350758
237	0xbe38a57f	-0.18031882
238	0xbd2f7c8d	-0.04284339
239	0xbabccc0b	-0.0014404071
240	0x3d689708	0.05678466
241	0x3dc1d497	0.094643764
242	0xbc26256b	-0.010140757
243	0x3e0fc5de	0.14040324
244	0xbd658e29	-0.056043778
245	0x3e0ec144	0.13940912
246	0x3d42685e	0.047462814
247	0x3d91a7d2	0.07112087
248	0x3e0e58be	0.1390104
249	0xbd2b8a54	-0.041879967
250	0xbd9f43e3	-0.0777662
251	0xbd930427	-0.07178526
252	0xbd4e8c3b	-0.050426703
253	0xbca8cf1e	-0.020606574
254	0xbd1d1fb4	-0.038360313
255	0x3c689f37	0.014198116

bias f4 [16]
0	0xbe3a754f	-0.18208812
1	0xbb9764c3	-0.004620166
2	0xbdadb96e	-0.084826335
3	0xbe8fcb4d	-0.28084794
4	0x3e4b7a5b	0.19870894
5	0xbf2db212	-0.6784984
6	0x3dadcde2	0.08486535
7	0x3d4dc867	0.050239947
8	0xbe91b7f5	-0.2846066
9	0xbd830d21	-0.063989885
10	0xbe8b6d11	-0.2723165
11	0xbd262474	-0.04056211
12	0x3db0e1fc	0.08636853
13	0x3e1c72f5	0.15278228
14	0x3e532819	0.20620765
15	0xbf0520a2	-0.5200292

weight f4 [120, 400]
0	0xbd740635	-0.059576232
1	0xbe145332	-0.14484861
2	0xbd5048f5	-0.050850827
3	0x3d869ea4	0.06573227
4	0xbd548f14	-0.051894262
5	0x3d773cb7	0.060360637
6	0x3cdd8881	0.02704263
7	0xbd4ac9f8	-0.04950902
8	0x3bf9d359	0.0076240716
9	0xbdd8c366	-0.10584144
10	0xbdc258a9	-0.09489567
11	0x3dc74756	0.09730403
12	0x3e267291	0.16254641
13	0x3da0ca86	0.07851128
14	0xbc3ff330	-0.011715695
15	0xbda396e0	-0.079877615
16	0x3cf5f578	0.030024275
17	0xbc21fe7c	-0.009887334
18	0xbd49cf95	-0.04927023
19	0xbdd05d9a	-0.10174103
20	0xba2cfba6	-0.0006598778
21	0x3cbf9900	0.023388386
22	0xbd391eff	-0.045195576
23	0xbe364b6d	-0.1780221
24	0xbe3ac107	-0.18237697
25	0xbdc8a3f1	-0.09796894
26	0x3cb3ec7d	0.021963352
27	0xbbd9e276	-0.0066493107
28	0xbc1fa39f	-0.0097436
29	0xbe12f7a2	-0.14352277
30	0xbdc06532	-0.093943015
31	0x3d0d7c8f	0.034542616
32	0x3d7f3e74	0.06231542
33	0xbc9fb444	-0.019495137
34	0x3d3bdfb7	0.045867648
35	0x3d4a009a	0.04931698
36	0x3d15866b	0.036505144
37	0x3dcd3ade	0.10020994
38	0x3c231b26	0.009955203
39	0x3ce06bf2	0.027395222
40	0xbde3aa35	-0.11116449
41	0xbc529f90	-0.0128554255
42	0x3cbfbb95	0.023404876
43	0xbcb14a5a	-0.021641899
44	0xbcb5bcaa	-0.022184689
45	0x3c23360e	0.009961618
46	0x3e27da3f	0.16391848
47	0x3d77f72a	0.06053845
48	0x3d92d32f	0.07169186
49	0x3d95d4d1	0.07315982
50	0xbba9be29	-0.0051801396
51	0xbd990959	-0.07472486
52	0xbc791f44	-0.015205208
53	0xbce03fa6	-0.0273741
54	0xbe287f29	-0.16454758
55	0x3d000226	0.03125205
56	0x3dd25d7a	0.102717355
57	0x3d3fa5ca	0.04678897
58	0x3dae8a45	0.085224666
59	0xbd917c67	-0.07103806
60	0xbd73163d	-0.05934738
61	0x3d86c9a5	0.065814294
62	0xbbfe2d86	-0.0077568917
63	0xbd5ab23c	-0.053392634
64	0xbe2a9597	-0.16658626
65	0x3d786239	0.060640547
66	0x3d99be39	0.07506985
67	0x3dbbbdb2	0.09167041
68	0x3d111657	0.035421696
69	0xbd914dd2	-0.07094921
70	0xbe16f416	-0.14741549
71	0x3d128f97	0.03578147
72	0xbc100a9a	-0.00879159
73	0xbd19941e	-0.03749477
74	0xbd87a2a5	-0.06622819
75	0xbd3c74d8	-0.04600987
76	0xbd82dfb0	-0.06390321
77	0xbd36b726	-0.044608258
78	0x3dd8ae57	0.10580128
79	0x3dc23e92	0.094845906
80	0x3b27b8e3	0.0025592379
81	0xbd3885fe	-0.04504966
82	0x3ccd48b3	0.02505908
83	0xbcadfdd9	-0.021239208
84	0x3c0f90bb	0.008762534
85	0x3daa75b9	0.08323235
86	0x3cbaff32	0.022826765
87	0xbcf5ad55	-0.029989878
88	0xbd5b8a19	-0.053598497
89	0x3ddacdf3	0.10683813
90	0xbd2dd572	-0.042439885
91	0xbdae886b	-0.085221134
92	0xbd2482ee	-0.040163927
93	0x3d89f3bd	0.067359425
94	0xbc53f0ba	-0.012935812
95	0xbcc0f1d8	-0.02355282
96	0xbd48e512	-0.049046583
97	0x3c672a63	0.014109227
98	0xbde5a3ad	-0.11212859
99	0x3bbe0752	0.0057992125
100	0x3dd8d1ae	0.10586868
101	0xba37e10f	-0.00070144323
102	0xbc3c57be	-0.011495529
103	0xbd36ffab	-0.044677418
104	0xba626ca9	-0.00086374074
105	0x3c3c1730	0.011480138
106	0x3d6c111a	0.057633497
107	0x3db5680f	0.08857738
108	0x3d959222	0.07303263
109	0x3d72ad4d	0.059247304
110	0x3de5f374	0.112280756
111	0x3e02a306	0.12757501
112	0x3d74e1a3	0.059785496
113	0x3c041400	0.008061409
114	0x3c018db2	0.007907318
115	0xbd079eb0	-0.03311032
116	0xbc512958	-0.012766205
117	0xbda523e6	-0.08063488
118	0x3a1872fa	0.00058154727
119	0xbc831910	-0.016003162
120	0x3d451edb	0.04812513
121	0x3d011a2a	0.031519093
122	0x3c44d5a5	0.012013827
123	0x3bb6731b	0.005567921
124	0xbd125dcd	-0.035733987
125	0xbd5f3daf	-0.054502185
126	0x3ce2fd8d	0.027708793
127	0xbda305b2	-0.07960071
128	0xbd631f65	-0.055449862
129	0xbd56fb95	-0.05248602
130	0xbd452af3	-0.048136663
131	0x3d1bfb84	0.03808166
132	0x3c8de949	0.017323153
133	0x3cf649da	0.030064512
134	0xbda15745	-0.078779735
135	0x3b9db137	0.0048123854
136	0x3c218406	0.009858137
137	0xbd79fb96	-0.061030947
138	0x3cf7b497	0.03023748
139	0xbdfe8183	-0.12427046
140	0xbb300103	-0.0026856072
141	0x3d059d17	0.032620516
142	0x3d1e041f	0.03857815
143	0xbda4f0eb	-0.08053764
144	0xbd1c3c89	-0.03814367
145	0xbe0279f8	-0.1274184
146	0xbdc8d42b	-0.09806093
147	0x3c6f4ef0	0.0146062225
148	0x3b8d0618	0.004303705
149	0xbd6225ac	-0.055211708
150	0xbdfd9971	-0.12382782
151	0x3c1003ac	0.008789938
152	0x3dcaf7d4	0.09910551
153	0x3de48b5c	0.11159393
154	0xbb908491	-0.0044103344
155	0x3d59b014	0.053146437
156	0xbd0afb68	-0.033931166
157	0xbc76b734	-0.0150583275
158	0x3dfd0703	0.12354853
159	0xbd3dc0f4	-0.046326593
160	0xbd8165b6	-0.06318228
161	0xbdfa9121	-0.122347124
162	0x3c397b0d	0.0113208415
163	0x3ceeb765	0.029140184
164	0xbd9c9432	-0.076454535
165	0x3db6321c	0.08896276
166	0xbd8815ab	-0.06644758
167	0x3d9b0a4c	0.07570323
168	0xbd667e2c	-0.05627267
169	0xbc9901d0	-0.018677622
170	0xbd84d182	-0.06485273
171	0x3d5985a8	0.05310598
172	0x3cb9ad62	0.022665683
173	0xbd4876b0	-0.048941314
174	0xbd9fd5c6	-0.07804446
175	0x3c75b4bb	0.014996703
176	0xbd1c7697	-0.038199034
177	0x3c7dccee	0.015490754
178	0xbc8ee80b	-0.017444631
179	0xbd868c4d	-0.06569729
180	0x3d9505af	0.07276475
181	0xbc9c2567	-0.019060804
182	0xbd413a01	-0.047174457
183	0xbd0dc4c4	-0.03461148
184	0xbd63c8ad	-0.0556113
185	0x3dade114	0.08490196
186	0xbe00ce54	-0.12578708
187	0xbb53865e	-0.0032276134
188	0xbbdebe5a	-0.006797594
189	0x3cff406e	0.031158652
190	0x3d9c17d6	0.07621734
191	0xbb82adde	-0.0039880117
192	0x3c1c7f35	0.009551813
193	0xbd71f08a	-0.059067287
194	0x3cd1feb2	0.025634144
195	0x3dd23687	0.102643065
196	0x3e1ca7cd	0.15298386
197	0x3d1ad06e	0.03779643
198	0xbcbab262	-0.022790138
199	0xbd11ba00	-0.035577774
200	0x3d0f282b	0.034950417
201	0xbc3a7f10	-0.011382833
202	0x3cf67304	0.03008414
203	0xbd6f5663	-0.058431994
204	0xbcad72da	-0.02117293
205	0x3ccb1e40	0.024794698
206	0xbc4ecdf7	-0.012622348
207	0xbdac2dc6	-0.08407168
208	0xbd3c5878	-0.045982808
209	0xbcade77d	-0.021228546
210	0x3d60d592	0.054891177
211	0xbd1676ee	-0.036734514
212	0x3d5ea680	0.054358006
213	0xbaa87ac7	-0.0012853973
214	0x3d105548	0.03523758
215	0x3d4fa2d9	0.050692413
216	0x3d210415	0.039310534
217	0xbd1a9112	-0.037736006
218	0x3d53f992	0.05175168
219	0x3dfcc1e7	0.123416714
220	0x3c7f3802	0.015577318
221	0x3da8f875	0.082505144
222	0x3d3b10c5	0.04567029
223	0x3d783e92	0.060606547
224	0x3ccb62bb	0.024827352
225	0xbd062b42	-0.032756098
226	0x3daff29f	0.08591198
227	0x3e0aa5d1	0.13539816
228	0x3cac3bad	0.02102455
229	0x3dad251c	0.08454344
230	0xbda217ba	-0.07914682
231	0x3de7ca28	0.11317855
232	0x3d402c3f	0.046917196
233	0x3d00992f	0.031396087
234	0xbc9aa868	-0.01887913
235	0xbc0400da	-0.008056844
236	0x3d1a5e45	0.03768756
237	0x3d7aa74b	0.0611947
238	0xbdc1c88f	-0.09462082
239	0x3e2108c1	0.15725996
240	0x3df024cf	0.11725771
241	0xbd3b9d90	-0.04580456
242	0x3d285f63	0.041106593
243	0x3c6b2946	0.014353102
244	0x3d848bb1	0.064719565
245	0x3d2c4f32	0.042067714
246	0x3bff33d9	0.007788163
247	0xbdbdc410	-0.092659116
248	0x3c532a88	0.012888558
249	0x3d0be259	0.03415141
250	0x3dacdf7f	0.08441066
251	0x3d1f8bb3	0.038951587
252	0x3c71a854	0.014749605
253	0x3cfe2c02	0.031026844
254	0x3c921ca6	0.017835926
255	0x3da3c953	0.07997384

bias f4 [120]
0	0x3e7e2a0e	0.2482073
1	0x3d3828a9	0.04496065
2	0x3d8bb5c6	0.0682178
3	0xbe179c10	-0.14805627
4	0x3ccfc0e5	0.025360534
5	0x3c3e120d	0.011600983
6	0xbc967431	-0.018365951
7	0xbdfc87e2	-0.12330605
8	0xbd0b636b	-0.03403036
9	0xbd377fa9	-0.04479948
10	0xbd08952d	-0.03334539
11	0x3d985d91	0.074397214
12	0x3e2701a8	0.16309226
13	0xbd546bf3	-0.05186076
14	0x3dceaf65	0.100920476
15	0xbd7b4e65	-0.06135406
16	0xbd0b17f7	-0.0339584
17	0xbd16b96a	-0.03679792
18	0x3d4d91f5	0.050188024
19	0x3da8e76e	0.08247267
20	0x3e2f7721	0.17135288
21	0xbe5df36f	-0.21674894
22	0x3d818a23	0.063251756
23	0xbd137120	-0.035996556
24	0xbd844d87	-0.064601
25	0xbb12b5ef	-0.0022386273
26	0xbd9740f6	-0.07385437
27	0xbe005a2a	-0.12534395
28	0xbd29373d	-0.041312445
29	0xbd71b625	-0.059011597
30	0x3d845ff0	0.06463611
31	0x3cf7d2c5	0.03025187
32	0x3d01c6af	0.03168362
33	0x3da13f4c	0.07873401
34	0x3d21bef4	0.039488748
35	0x3dba18d8	0.0908677
36	0x3d16b370	0.03679222
37	0x3c037fae	0.008026047
38	0xbe2796ac	-0.1636607
39	0xbe1725c6	-0.14760503
40	0x3d09d416	0.033649527
41	0xbd7c4ac7	-0.06159475
42	0x3c27b90b	0.010236989
43	0x3d661018	0.056167692
44	0xbd00bd31	-0.031430427
45	0x3b9948d4	0.0046778712
46	0x3d34b0a2	0.044113763
47	0xbd9280ae	-0.0715345
48	0xbd8143f9	-0.06311793
49	0xbdaa0a76	-0.083027765
50	0x3b5330ff	0.003222525
51	0x3d805d78	0.06267828
52	0xbe0fe784	-0.1405316
53	0xbe0ad6ad	-0.13558455
54	0xbd244d1b	-0.040112596
55	0x3e3b35db	0.18282263
56	0x3e77bd49	0.241933
57	0x3de30514	0.11084953
58	0x3d80580d	0.06266794
59	0xbd09c41b	-0.033634286
60	0x3dd21d7d	0.10259531
61	0xbd8be211	-0.06830228
62	0x3cec9e84	0.02888418
63	0xbdbeb17f	-0.093111984
64	0x3dae2a64	0.08504179
65	0xbbcbab8b	-0.006215518
66	0xbd5f91ae	-0.05458229
67	0x3d7dce90	0.06196457
68	0x3da1dd7c	0.07903573
69	0x3bca4f56	0.0061740084
70	0x3da350af	0.079743735
71	0x3d07f4c7	0.033192422
72	0xbe0655cb	-0.13118665
73	0x3dab82c0	0.08374548
74	0x3bf367b9	0.007428136
75	0xbd007373	-0.0313601
76	0x3d43f88b	0.04784445
77	0xbd667c36	-0.0562708
78	0xbd28eadb	-0.0412396
79	0xbae9d085	-0.0017838633
80	0x3c7669cc	0.015039872
81	0xbce49ee3	-0.027907794
82	0x3df61bbd	0.120170094
83	0xbc827081	-0.015922787
84	0xbd86d804	-0.065841705
85	0x3cb08ceb	0.02155157
86	0x3dd7d1d1	0.10538066
87	0xbba6a311	-0.005085357
88	0xbc713e09	-0.014724263
89	0x3d0e5e15	0.034757692
90	0xbacc099d	-0.001556683
91	0xbcaec7bf	-0.02133548
92	0x3cd921d3	0.026505386
93	0xbcfa5a4a	-0.030560631
94	0xbe0028cc	-0.12515563
95	0x3e6e41ca	0.23267284
96	0xbd12f4e7	-0.03587809
97	0xbcdbe863	-0.026844209
98	0xbdffeded	-0.124965526
99	0x3da72ace	0.08162461
100	0xbc2b2931	-0.0104468325
101	0x3c1badaa	0.009501854
102	0xbd8ab6ec	-0.06773171
103	0xbcde73f8	-0.027154908
104	0x3eaaf04f	0.33386466
105	0x3d267636	0.04064008
106	0x3dd08c69	0.10183031
107	0xbd842824	-0.06452969
108	0x3b964fbd	0.0045871423
109	0x3e561da1	0.2090974
110	0x3d836bd1	0.06417049
111	0x3cb978a3	0.022640532
112	0xbde20bff	-0.11037444
113	0xbd06ed90	-0.0329414
114	0x3e0e7a27	0.13913785
115	0x3da9c237	0.08288997
116	0xbe2b768c	-0.16744441
117	0xbc5b703b	-0.013393457
118	0xbd3c9dc9	-0.046048913
119	0x3ceaa4cd	0.028643036

weight f4 [84, 120]
0	0x3d1f22e7	0.038851645
1	0xbd7e1fb5	-0.062041957
2	0x3d27c474	0.040958837
3	0xbcf709ad	-0.030155981
4	0xbddc57ab	-0.10758909
5	0xbc696191	-0.014244453
6	0xbdf730de	-0.120698676
7	0xbcf2dd70	-0.029646605
8	0x3e00462e	0.12526771
9	0xbe074f74	-0.13213903
10	0x3c9e2e05	0.019309053
11	0x3e069e90	0.13146424
12	0x3e78004f	0.24218868
13	0xbcbc2d79	-0.022970902
14	0xbc89ec1f	-0.016836224
15	0x3d32efa0	0.043685555
16	0xbcaa386d	-0.020778859
17	0x3d964ddb	0.073390685
18	0x3d1d55ef	0.03841203
19	0x3e05c1fb	0.13062279
20	0x3dafce6c	0.08584294
21	0xbdc715e9	-0.09720976
22	0xbd473c0b	-0.048641246
23	0xbdefbeee	-0.11706339
24	0xbd89e699	-0.06733436
25	0x3d1f78f4	0.03893371
26	0xbcdcf4e3	-0.02697224
27	0x3dab7531	0.08371962
28	0x3c84f4ae	0.016229954
29	0xbdf408bf	-0.11915731
30	0x3e20d753	0.1570714
31	0xbe607c42	-0.219224
32	0xbd93aabb	-0.07210299
33	0x3db89d99	0.09014434
34	0x3cf43878	0.029812083
35	0xbd922d32	-0.071375266
36	0xbdfe325d	-0.1241195
37	0x3d5626b8	0.05228302
38	0x3cbc52ef	0.022988765
39	0xbd9130e8	-0.07089406
40	0x3b9f7463	0.0048661693
41	0xbdbfd344	-0.093664676
42	0x390ac319	0.00013233385
43	0x3df06ef6	0.11739914
44	0x3d40857b	0.047002297
45	0x3cda2cae	0.026632633
46	0xbda7077c	-0.081557244
47	0xbcd7b272	-0.026330207
48	0xbdb53905	-0.08848766
49	0xbd9dceab	-0.077054344
50	0xbd819964	-0.06328085
51	0x3d3b4fad	0.04573028
52	0x3e2c3ecf	0.16820835
53	0x3d6897df	0.05678546
54	0xbdc216ab	-0.0947698
55	0x3b9a3cb3	0.004706943
56	0xbdaff4c4	-0.08591607
57	0xbd83d1b7	-0.06436484
58	0xbdaa5257	-0.08316486
59	0x3d3b5a69	0.04574052
60	0xbdb5acc7	-0.08870845
61	0xbd781ead	-0.06057613
62	0xbcc46a93	-0.0239766
63	0x3d912625	0.070873536
64	0x3e020550	0.12697339
65	0x3cbba0a6	0.022903752
66	0x3de73523	0.11289432
67	0x3dd40910	0.10353291
68	0xbd818714	-0.06324592
69	0xbd9c0307	-0.07617765
70	0x3dfb8cea	0.122827366
71	0x3e81eced	0.25376073
72	0x3df0eeaa	0.117642716
73	0xbddaa2f8	-0.10675615
74	0x3e056fa6	0.13030872
75	0xbd558019	-0.052124117
76	0xbe2e89f8	-0.17044818
77	0xbca2bde4	-0.019865938
78	0x3c733bbd	0.014845786
79	0xbde0c10c	-0.10974321
80	0xbd4958df	-0.04915702
81	0xbca992ec	-0.02069994
82	0x3db12fc8	0.08651692
83	0xbd1f011b	-0.038819414
84	0xbcd239dd	-0.025662357
85	0x3c3608d1	0.0111105
86	0x3cb2bdf9	0.021819102
87	0xbd820ec9	-0.06350476
88	0x3d69b2d2	0.057055302
89	0xbdc8a1a0	-0.097964525
90	0xbe142769	-0.14468159
91	0x3dc151d3	0.09439435
92	0x3df755c9	0.12076909
93	0x3d9e68ba	0.07734819
94	0x3de17ef7	0.11010545
95	0x3dd3bf61	0.10339237
96	0xbda8a225	-0.082340516
97	0xbdae4bb8	-0.08510536
98	0x3c122cc2	0.008921804
99	0x3dde4e92	0.1085483
100	0x3de562c3	0.11200478
101	0x3ce38762	0.027774516
102	0xbda76a08	-0.08174521
103	0xbdd228c3	-0.10261681
104	0xbdd9e674	-0.106396586
105	0xbd4b2978	-0.049600095
106	0xbe3e581c	-0.18588299
107	0xbc2e42d4	-0.01063605
108	0x3dc13f03	0.09435847
109	0x3d446096	0.047943674
110	0x3cdbf142	0.02684844
111	0xbd07eba8	-0.033183724
112	0xbdc2c750	-0.09510672
113	0xbdbc1ea5	-0.091855325
114	0x3c9b3968	0.018948272
115	0x3d9b7d3d	0.07592247
116	0x3da3325a	0.07968588
117	0xbd839aad	-0.064259864
118	0xbcc9f254	-0.024651684
119	0xbd01458e	-0.031560473
120	0xbd866598	-0.06562346
121	0x3dbb61fa	0.09149547
122	0xbd63bc8e	-0.05559974
123	0x3e107e5e	0.14110705
124	0x3d370eff	0.044692036
125	0x3e012449	0.12611498
126	0x3cde3ee3	0.027129596
127	0xbd955dea	-0.07293303
128	0xbca91c27	-0.020643307
129	0xbdc9f4d7	-0.098611526
130	0xbd3b7638	-0.04576704
131	0xbcd9bbe7	-0.026578857
132	0xbe6c5b8b	-0.23081796
133	0xbdd80b0d	-0.10548983
134	0x3c813e95	0.015776912
135	0xbd9d81d8	-0.07690781
136	0xbda79037	-0.08181804
137	0xbca4d3b5	-0.020120481
138	0xbe116111	-0.14197184
139	0xbcbbdcc0	-0.02293241
140	0x3dd4e490	0.10395157
141	0x3cb929f0	0.022603005
142	0x3df191ae	0.11795364
143	0xbc6ef9be	-0.01458591
144	0x3d882b7c	0.06648919
145	0xbdf91da1	-0.121638544
146	0x3d0bac5e	0.03409993
147	0x3da5d9e5	0.08098201
148	0x3e05860d	0.13039418
149	0x3e09538d	0.13410778
150	0x3c2369bc	0.0099739395
151	0x3ddc7dc8	0.10766178
152	0xbd0870c3	-0.033310663
153	0x3d4ea7bc	0.050452933
154	0xbe2b8d2a	-0.16753069
155	0x3debc21b	0.11511632
156	0xbd63d35a	-0.055621482
157	0x3cab5443	0.020914203
158	0xbd3a22a8	-0.045443207
159	0xbda30f5e	-0.079619154
160	0xbdb7cd1f	-0.089746706
161	0xbd2857ea	-0.041099466
162	0xbd382e34	-0.044965938
163	0xbd07c84f	-0.033150014
164	0xbdf8950f	-0.12137806
165	0xbcaf64d5	-0.021410385
166	0x3c7733ba	0.015088016
167	0x3dd398e7	0.10331898
168	0xbd6e7841	-0.05822015
169	0x3dd2f794	0.10301128
170	0xbe7f8a70	-0.24955153
171	0x3d5996c2	0.05312229
172	0xbda2e143	-0.079531215
173	0xbb2c7d57	-0.0026319826
174	0xbcfede3f	-0.031111835
175	0x3e4f1719	0.20223655
176	0xbd1a77d6	-0.03771194
177	0x3e2b4580	0.16725731
178	0x3daa8d3c	0.083277196
179	0xbe04d049	-0.1297008
180	0x3c42f188	0.011898406
181	0xbd4e24ee	-0.050328188
182	0xbccb117f	-0.024788616
183	0x3c936b7a	0.017995585
184	0x3cc39780	0.023875952
185	0x3d5d1dbf	0.053983446
186	0xbd598545	-0.05310561
187	0x3cb32f85	0.021873245
188	0x3d617b00	0.055048943
189	0x3e073c94	0.13206702
190	0xbe22f303	-0.15913014
191	0x3c2375db	0.009976829
192	0x3dd51054	0.10403505
193	0x3d9e10d9	0.07718057
194	0xbdb24b95	-0.087058224
195	0x3e051a31	0.12998272
196	0xbe3c7f94	-0.18408042
197	0x3dceadb3	0.10091724
198	0x3d8aaf8d	0.06771765
199	0x3caa411c	0.020783
200	0xbd28a0cd	-0.041168977
201	0xbbb4fb6e	-0.005523137
202	0x3e4abdbe	0.19798943
203	0x3d920913	0.07130637
204	0x3e237016	0.15960726
205	0xbd89bb8b	-0.06725224
206	0xbd78939a	-0.06068764
207	0x3bafa47f	0.0053601856
208	0xbdd4a2f3	-0.103826426
209	0x3dc9397e	0.09825419
210	0xbdd55717	-0.10417002
211	0x3df72bc4	0.120688945
212	0xbd46a218	-0.04849443
213	0xbd62d1ad	-0.055375744
214	0xbdd7523f	-0.10513734
215	0xbdbbebf1	-0.091758616
216	0xbdcfbe2a	-0.10143693
217	0xbd856565	-0.0651348
218	0x3ced4032	0.028961275
219	0x3af0eb8f	0.0018380749
220	0x3d7772cd	0.060412217
221	0xbc5a9a46	-0.013342446
222	0xbd723add	-0.059138168
223	0x3e1f6341	0.15565206
224	0x3dcae6df	0.099073164
225	0x3d79de54	0.061003044
226	0xbe8876e7	-0.26653215
227	0x3dc47abf	0.095937245
228	0xbd57e50a	-0.052708663
229	0x3d40aa5a	0.04703746
230	0xbcbbb688	-0.022914186
231	0x3cfb76be	0.03069627
232	0x3dc0c888	0.09413248
233	0x3da84c6a	0.082177
234	0xbc934e75	-0.017981747
235	0x3d00a2e1	0.031405333
236	0x3cea6c97	0.028616233
237	0xbdaeb3e9	-0.08530409
238	0x3d9fc2f7	0.078008585
239	0x3c8c1f89	0.01710488
240	0x3df0bff3	0.117553614
241	0x3e049e50	0.12951016
242	0xbb39cb3c	-0.0028349897
243	0x3d771649	0.060323987
244	0xbda332be	-0.07968663
245	0xbe8ff7eb	-0.28118834
246	0x3e1e0c95	0.15434487
247	0xbe27269f	-0.16323327
248	0x3b43e33e	0.0029890086
249	0xbdc4e4f1	-0.096139796
250	0x3cb254b9	0.021768915
251	0x3d455c89	0.04818395
252	0xbd912bb0	-0.07088411
253	0x3e106321	0.14100315
254	0xbd9d9655	-0.07694689
255	0x3d25c75f	0.04047334

bias f4 [84]
0	0x3dde6089	0.10858256
1	0x3d188287	0.037233856
2	0x3d8be150	0.06830084
3	0x3d305a45	0.043054838
4	0xbcaa0a63	-0.020756906
5	0xbd5be110	-0.053681433
6	0xbc03752e	-0.008023543
7	0x3d19bdfb	0.037534695
8	0x3e054fb5	0.13018687
9	0x3e282c90	0.16423249
10	0x3e206719	0.15664329
11	0x3c9acb8d	0.018895889
12	0xbc439af2	-0.011938797
13	0xbd56a560	-0.052403808
14	0x3e845ea9	0.2585347
15	0xbe02e04e	-0.12780878
16	0x3e14600c	0.14489764
17	0x3dc16bf7	0.09444421
18	0x3e2ed92e	0.17075035
19	0x3db07378	0.08615774
20	0x3d546888	0.0518575
21	0xbcf553c2	-0.029947165
22	0x3e07f027	0.13275205
23	0x3d1a61f9	0.03769109
24	0xbdba1640	-0.09086275
25	0xbe03d365	-0.1287361
26	0x3e8f2c42	0.27963454
27	0x3e1b7bd1	0.15183951
28	0xbd54b02b	-0.05192582
29	0x3e08bdbf	0.13353632
30	0x3d01419c	0.03155671
31	0xbd95f5f8	-0.073223054
32	0x3f06e7f2	0.5269767
33	0xbd9416b2	-0.07230891
34	0xbe59f48c	-0.21284693
35	0x3db9a922	0.09065463
36	0xbd6323ab	-0.055453938
37	0xbc1971b9	-0.0093654925
38	0xbd38184d	-0.04494505
39	0xbe28f25c	-0.16498703
40	0xbdc470d2	-0.09591831
41	0x3c80678c	0.015674375
42	0xbd433e63	-0.04766692
43	0x3dc70161	0.0971706
44	0x3c0a2e2c	0.00843386
45	0xbe0d5965	-0.13803633
46	0x3cf91e3e	0.030409928
47	0x3ea553f1	0.32290605
48	0xbea37187	-0.31922552
49	0xbc224a71	-0.0099054435
50	0x3ec45cb5	0.3835198
51	0x3db717fc	0.089401215
52	0x3c6facb3	0.014628577
53	0x3dfa8088	0.12231547
54	0xbde720c9	-0.1128555
55	0xbe202402	-0.15638736
56	0xbd8a4000	-0.06750488
57	0x3e2c50ac	0.16827649
58	0xbe1f4032	-0.15551832
59	0xbdedb77a	-0.11607261
60	0x3d720f97	0.0590969
61	0xbd7bf212	-0.061510153
62	0xbe27a6c8	-0.16372216
63	0xbd8fc69b	-0.07020303
64	0xbe319257	-0.1734098
65	0x3e00ed88	0.12590611
66	0x3dcd0335	0.10010377
67	0x3e496a3f	0.19669436
68	0x3eb911e7	0.3614647
69	0xbdf01ad2	-0.117238656
70	0xbdedf401	-0.11618806
71	0xbc2e8387	-0.010651476
72	0xbd411124	-0.047135487
73	0x3e9fdf08	0.31224847
74	0xbd0fce80	-0.035109043
75	0xbd507fe5	-0.05090322
76	0xbe2f0e70	-0.17095351
77	0xbdb7db93	-0.08977427
78	0xbdf5f478	-0.12009519
79	0xbcea156f	-0.028574673
80	0xbcdceb53	-0.02696768
81	0xbc3c8d58	-0.011508308
82	0x3e4429f9	0.19156636
83	0x3cdece7a	0.027198065

weight f4 [10, 84]
0	0xbebf03ff	-0.37307736
1	0xbe8b878f	-0.2725186
2	0xbdac79d5	-0.08421675
3	0x3de6a2ae	0.112614974
4	0x3e663c9b	0.22484057
5	0xbca00e73	-0.01953814
6	0x3da341f2	0.079715624
7	0xbe5ea7bf	-0.21743678
8	0x3dad2f5d	0.084562995
9	0xbece8a72	-0.4034
10	0xbe52d1ce	-0.20587847
11	0xbdfa7b45	-0.12230543
12	0x3e4c53b5	0.19953807
13	0xbd0c795c	-0.034295425
14	0x3edad35e	0.42739385
15	0x3ec813b2	0.39077526
16	0x3de23144	0.11044553
17	0xbed7f351	-0.42177823
18	0x3e0521b3	0.13001136
19	0x3ebe441a	0.37161332
20	0xbdbd84fd	-0.09253881
21	0xbe5394e6	-0.20662269
22	0xbeb4d84c	-0.3532127
23	0x3e434e7e	0.19072911
24	0xbe0861b4	-0.13318521
25	0xbd920d05	-0.071313895
26	0xbdb7f6eb	-0.08982643
27	0xbe62153d	-0.22078414
28	0xbd394155	-0.04522832
29	0x3f166fd3	0.5876438
30	0xbdb1bf18	-0.08679026
31	0xbd2139ad	-0.039361645
32	0x3dbd526d	0.09244237
33	0x3dd718b1	0.105027564
34	0x3e3203b1	0.1738422
35	0x3e132cb5	0.14372523
36	0xbdc50a7c	-0.0962114
37	0xbe6e9349	-0.23298372
38	0x3eb5102b	0.35363898
39	0x3e9d72b5	0.30751577
40	0x3e2f8bdd	0.17143197
41	0xbe16bd75	-0.1472071
42	0xbddc51bd	-0.10757778
43	0x3e568437	0.20948873
44	0x3ec4055e	0.38285345
45	0x3d8c904a	0.068634585
46	0x3d985727	0.07438498
47	0xbd3af07f	-0.04563951
48	0x3e27be78	0.16381252
49	0x3d695069	0.05696145
50	0x3d18dc67	0.037319567
51	0xbe819c69	-0.25314644
52	0xbd86c69f	-0.06580853
53	0x3d8ca6fe	0.06867789
54	0xbd0b8623	-0.03406347
55	0x3daf5474	0.0856103
56	0xbdf4b5ab	-0.11948713
57	0x3d0b4aaf	0.03400677
58	0x3dafbeab	0.08581289
59	0xbdc0ee21	-0.094204195
60	0x3f189ff1	0.5961905
61	0xbdc92e0f	-0.09823238
62	0xbe1787a0	-0.1479783
63	0x3d9e0d2c	0.07717356
64	0xbed2bce8	-0.4115975
65	0x3e9c1779	0.30486658
66	0x3d7cf41e	0.061756246
67	0xbe6af7db	-0.22946112
68	0xbe9adb83	-0.302456
69	0xbeb65b63	-0.35616598
70	0x3eb67734	0.3563782
71	0xbea8aea2	-0.32945734
72	0xbd21740a	-0.039417304
73	0x3defc227	0.117069535
74	0x3edb7cc9	0.4286864
75	0x3e3726ed	0.17885943
76	0x3de81fb8	0.11334175
77	0x3e496044	0.19665629
78	0xbdc3939c	-0.09549639
79	0xbdcf99b2	-0.10136737
80	0xbc911747	-0.017711295
81	0xbd54400a	-0.051818885
82	0xbed44244	-0.41456807
83	0x3e1caa02	0.15299228
84	0xbd8b116f	-0.067904346
85	0xbe9c26df	-0.30498406
86	0xbe79127e	-0.2432346
87	0xbb3968b9	-0.002829118
88	0xbe63306a	-0.22186437
89	0xbe1b4a2e	-0.15165016
90	0x3df0823f	0.117435925
91	0x3e5f8b7e	0.21830556
92	0xbe1f4fae	-0.15557739
93	0x3f0bcf08	0.5461278
94	0xbde8268c	-0.11335477
95	0xbe3ac40b	-0.18238847
96	0x3d2fc173	0.042909097
97	0x3e5fa989	0.21842016
98	0xbf284d6d	-0.6574314
99	0xbe83ad35	-0.25718084
100	0x3de19e94	0.110165745
101	0x3da660d2	0.08123936
102	0xbebd9d4e	-0.37034076
103	0x3e1c38e9	0.15256085
104	0xbe640c58	-0.22270334
105	0xbd2d38b4	-0.042290404
106	0x3b7d14b4	0.0038617076
107	0x3e2a4337	0.16627203
108	0xbe626fe4	-0.22112995
109	0x3e93e1ee	0.28883308
110	0xbdf46edc	-0.11935207
111	0xbdf7786a	-0.12083514
112	0xbcd54978	-0.02603601
113	0xbe07167c	-0.13192171
114	0xbe3b05f9	-0.18263997
115	0x3ced2106	0.02894641
116	0xbeaa49d3	-0.33259448
117	0x3eb2023b	0.34767327
118	0x3e48c908	0.19607937
119	0x3e2d9439	0.16951074
120	0xbde396b1	-0.111127265
121	0x3dfe224b	0.124088846
122	0x3dd822b7	0.10553496
123	0xbdec238b	-0.11530217
124	0x3e9089ed	0.2823023
125	0xbd11e22e	-0.035616092
126	0xbe498d34	-0.19682771
127	0xbeadbbe8	-0.33932424
128	0xbe6b72ab	-0.22992961
129	0xbc899f61	-0.01679963
130	0x3e9c026b	0.30470595
131	0xbde24ed0	-0.110501885
132	0x3e66a1cf	0.22522663
133	0x3c04666f	0.008081063
134	0x3d455d8c	0.048184916
135	0x3e500925	0.20315988
136	0xbe7cfdda	-0.24706212
137	0xbe30a416	-0.17250094
138	0xbe839f51	-0.25707486
139	0xbcd5d262	-0.026101295
140	0x3e907611	0.28215078
141	0xbe3b4ab7	-0.1829022
142	0xbe9c6070	-0.30542326
143	0xbe64fbd7	-0.22361694
144	0x3d6526e4	0.055945292
145	0xbd939f42	-0.072081104
146	0xbe91727f	-0.28407666
147	0xbd4a2fbb	-0.049361926
148	0x3e9e31a2	0.30897242
149	0xbd82632b	-0.06366571
150	0xbed0ce93	-0.40782604
151	0xbe196422	-0.14979604
152	0x3e377a6d	0.17917795
153	0x3eae3da2	0.34031397
154	0xbde70f0c	-0.11282167
155	0xbdfd4a9b	-0.123677455
156	0x3f02d2c7	0.5110287
157	0xbeb7d2fb	-0.35903153
158	0x3dc745a5	0.097300805
159	0xbebcbe41	-0.36863902
160	0x3ec8f22b	0.3924726
161	0xbcac1ddd	-0.021010334
162	0x3e91b7ad	0.28460446
163	0x3e70432e	0.23463127
164	0x3e455585	0.19270904
165	0xbe778893	-0.24173193
166	0xbea16fca	-0.315306
167	0xbe25d9da	-0.16196385
168	0x3c9ff46b	0.019525727
169	0xbd02cfcd	-0.031936456
170	0xbd88b201	-0.066745766
171	0x3e74943d	0.23884673
172	0x3c1b74f0	0.009488329
173	0xbdb5a98d	-0.0887023
174	0xbe92e6fc	-0.28691852
175	0xbdff8f06	-0.124784514
176	0x3ee4db53	0.4469858
177	0xbdbd635d	-0.09247468
178	0x3e8808dd	0.26569262
179	0x3e931629	0.28727844
180	0xbe825519	-0.2545555
181	0xbd78278f	-0.0605846
182	0x3e7b9a6e	0.24570629
183	0xbe19d7f1	-0.15023781
184	0x3e5da635	0.21645434
185	0xbe95b5c7	-0.29240248
186	0x3ef87c32	0.48532254
187	0xbe6a05a7	-0.22853719
188	0x3d90b788	0.07066256
189	0x3e8e06bb	0.2773951
190	0x3cf7c42d	0.030244911
191	0xbddba6f5	-0.10725204
192	0xbcd0852d	-0.025454128
193	0x3e079b5f	0.13242863
194	0x3d97526d	0.07388768
195	0x3dff2076	0.12457363
196	0x3e0633f8	0.13105762
197	0x3eea4b60	0.45760632
198	0x3e4574ba	0.19282809
199	0x3e006810	0.12539697
200	0x3eae824e	0.3408379
201	0x3d414d01	0.047192577
202	0xbe497b02	-0.1967583
203	0x3e6915ae	0.22762176
204	0xbebfaf1a	-0.3743828
205	0x3e826110	0.25464678
206	0xbe856593	-0.26054057
207	0x3e1bca7c	0.1521396
208	0x3e4df0fc	0.2011146
209	0x3e92d29b	0.28676304
210	0xbd32a8b8	-0.043617934
211	0xbe0b4faa	-0.13604608
212	0x3d924e4a	0.07143839
213	0xbe073a64	-0.13205868
214	0x3d59b2fa	0.0531492
215	0x3eed0d49	0.46299198
216	0xbe553394	-0.20820457
217	0x3d67a967	0.05655804
218	0x3eb567f2	0.35430866
219	0xbdaef09c	-0.08541986
220	0xbd21b400	-0.039478302
221	0xbe3fa012	-0.18713406
222	0x3d8c608f	0.068543546
223	0xbf0921d6	-0.53567255
224	0xbe888ee9	-0.26671532
225	0x3edce431	0.43142846
226	0xbe8fad01	-0.2806168
227	0x3e63ab66	0.22233352
228	0x3e269965	0.16269453
229	0x3d28d063	0.041214358
230	0xbe0a53a9	-0.13508476
231	0xbd81ec65	-0.06343917
232	0xbbf09283	-0.0073416843
233	0xbe6bee71	-0.23040177
234	0x3d71c50b	0.059025805
235	0x3dbc353b	0.091898404
236	0xbd7d2fa6	-0.06181302
237	0xbebd6016	-0.3698737
238	0xbda8f4fb	-0.08249851
239	0xba8d3e56	-0.0010776024
240	0xbdb8a4f7	-0.090158395
241	0x3e8b7ced	0.27243748
242	0x3e1caa81	0.15299417
243	0x3e1dfc79	0.15428342
244	0xbe8e09d2	-0.27741867
245	0xbe66c64a	-0.22536579
246	0xbe573f93	-0.21020345
247	0x3e36cef9	0.17852391
248	0x3c3cafa8	0.011516489
249	0x3edf9aec	0.43672884
250	0xbcfb9fc9	-0.03071584
251	0xbdca5bff	-0.09880828
252	0x3da417a1	0.08012319
253	0x3e4f72b6	0.20258602
254	0xbd9b9a85	-0.07597832
255	0xbc7dc65f	-0.01548919

bias f4 [10]
0	0xbea40beb	-0.32040343
1	0xbe7af1a0	-0.24506235
2	0x3f036021	0.51318556
3	0xbe41a1e5	-0.18909414
4	0x3f3a6a0c	0.72818065
5	0xbe9ac23a	-0.30226308
6	0x3ef989b8	0.48737884
7	0xbe90d3af	-0.28286502
8	0x3e5c4329	0.21509995
9	0xbed255ef	-0.41081187
